Homework_5/model.pth (torch, 899463 bytes, 10 tensors)

conv1.weight f4 [6, 3, 3, 3]
000000 cb da 1a bc 3e eb fd 3d c2 28 05 3e 01 72 42 be
       -0.009451578 0.123983845 0.13003829 -0.18988802
000010 39 59 24 be 4a 49 01 be e2 c1 31 bd bc 7d 1c 3d
       -0.1604966 -0.12625614 -0.04339779 0.038205847
000020 31 28 0e 3d 44 06 71 bd 4f c0 ba 3d e7 26 e7 bd
       0.0347063 -0.058843866 0.09118711 -0.11286717
000030 f0 a2 1d be 5a 76 30 3e a0 39 38 bd d7 dd 37 be
       -0.15394187 0.17232648 -0.04497683 -0.17955719
000040 80 17 84 bc 2c c2 07 3e c6 ea 6d 3d 1f c5 33 be
       -0.016124487 0.13257664 0.058085226 -0.17555664
000050 d0 0a a4 bd c9 d1 fc 3c 94 50 07 be bb 31 e9 bd
       -0.08009875 0.030861752 -0.13214332 -0.113864385
000060 4b ac 1a be e5 6b 1b 3e 98 cd bb 3c 40 dc f7 3d
       -0.15104787 0.15177877 0.022925183 0.12102556
000070 7d cd cf 3c 6e 3e be 3d 00 38 56 bd 57 61 b9 3d
       0.02536654 0.09289251 -0.0522995 0.09051769
000080 cf bc 1b be 33 64 37 bc 85 86 42 be c4 99 48 bc
       -0.15208744 -0.011193323 -0.18996628 -0.012243692
000090 5c 54 14 3e 40 c9 3a be 1d 59 a2 bd 88 c7 18 3e
       0.14485306 -0.18240833 -0.07927153 0.14919865
0000a0 26 fa 31 3e 59 98 9d 3d 17 15 12 3e 79 96 1f 3e
       0.1738058 0.07695074 0.14265858 0.15584745
0000b0 78 26 93 bd 77 c7 28 3e 53 81 1a 3e fc 49 9f bd
       -0.07185072 0.1648234 0.15088396 -0.07777783
0000c0 0d 17 3e be c2 af d7 bc 30 8c 46 bc 01 1f 27 3e
       -0.1856348 -0.026328925 -0.012118384 0.16320421
0000d0 4a e3 28 3e a4 83 be 3d 5c c0 fb bc f8 ea f8 bd
       0.16492954 0.09302452 -0.030731373 -0.12154192
0000e0 9a a7 ba bd 47 83 a8 bd dd 26 da 3d 4a 3e 39 3e
       -0.09113999 -0.08228164 0.10651944 0.18090168
0000f0 e5 1a 96 3a 38 2d be bd 5e 6e 56 3d cf 6c 7e bb
       0.0011452107 -0.092859685 0.052351348 -0.003882218
000100 40 7b 58 3d 64 93 ef 3d f8 8e c5 bc 6d 49 74 bb
       0.052851915 0.116980344 -0.024116024 -0.003727521
000110 38 e1 c5 3d 78 f1 9c bd 8f 15 25 be cb 4f 6f b8
       0.09662098 -0.07663244 -0.16121505 -5.7056353e-05
000120 2f 73 c5 3d e8 a3 7f bc e2 b4 fe bd f4 b9 35 3e
       0.0964111 -0.015603043 -0.124368444 0.17746717
000130 9a 89 06 3e 8e e3 f4 bd a8 9e d0 bd 03 72 ed bd
       0.13138428 -0.11957465 -0.10186511 -0.11594012
000140 f5 f8 3d be fa 9d fa 3d a2 d0 55 3d 63 9a ae bd
       -0.18552001 0.12237163 0.05220092 -0.08525541
000150 54 89 c3 bd eb 96 c8 bd d3 03 1d bd 65 5a 47 3d
       -0.09547678 -0.0979441 -0.038333725 0.04867019
000160 61 9b 8b 3d 97 ea 41 be f3 34 44 be 1d f8 0b bd
       0.068167455 -0.18937145 -0.19160824 -0.034172166
000170 58 af 89 bd 28 ef 71 bc 6b e4 cc bd 85 ee d3 3c
       -0.06722897 -0.014766492 -0.10004505 0.02587057
000180 e7 11 70 3d b8 65 a2 bd e9 f7 3f be 48 3b 37 3e
       0.058610823 -0.079295576 -0.18746914 0.17893708
000190 00 93 60 3d 89 91 a2 bd 81 b1 60 bd f9 27 60 3d
       0.05482769 -0.07937915 -0.05485678 0.05472562
0001a0 2a 0a 41 3e 57 39 11 be da 43 a1 3d c2 fd b8 3d
       0.18851534 -0.1418203 0.0787427 0.090327755
0001b0 3b be 10 be f2 40 37 be 36 26 e6 ba bd 71 cf bd
       -0.14135067 -0.17895868 -0.0017558995 -0.10129116
0001c0 e8 47 2a 3e 8f 22 2c be 1a d5 9f bd 87 76 3c be
       0.16628993 -0.16810058 -0.07804318 -0.1840459
0001d0 a5 80 11 3e f0 9a f9 3d 08 1f 6f bd 8e ed 2f bb
       0.1420923 0.12187755 -0.058379203 -0.0026844474
0001e0 ee fe b9 3d 1b 18 e5 bd 34 fa 2d be c8 7e f0 3d
       0.09081827 -0.111862384 -0.16989976 0.117429316
0001f0 e9 dd 83 3d 6a b0 14 3c 47 23 36 be 4e a2 08 3e
       0.064388104 0.0090752635 -0.17786895 0.13343164
000200 14 87 e7 bd e7 71 8b bc d9 3d 86 bd 1a 0d 5c 3d
       -0.11305061 -0.017022086 -0.06554765 0.053723432
000210 39 38 08 bd 93 88 54 bd 6c 2e 39 bd ce 08 16 bc
       -0.033256743 -0.05188806 -0.045210287 -0.009157373
000220 75 16 ea bb 2b ff 0a be 74 ac a5 3d ab 40 3d 3e
       -0.0071437904 -0.13573901 0.080895334 0.184817
000230 64 a1 35 3e 0a bd fb bc b3 19 29 3d b3 57 aa 3c
       0.17737347 -0.03072979 0.041284274 0.020793771
000240 b9 22 f8 bc 57 48 77 3c 5b 73 36 3e bb c3 0a be
       -0.030289995 0.015092931 0.17817442 -0.13551228
000250 32 cb ee bb d0 26 12 be bf b6 03 3e 09 40 94 3d
       -0.0072874064 -0.14272618 0.12862681 0.07238776
000260 a5 63 d7 bd e4 c4 06 bd b6 2d f2 bd 99 33 01 3e
       -0.105170526 -0.032902613 -0.11825125 0.12617339
000270 35 e2 b2 3d 9b 51 c2 bc e6 e0 09 3e 4b 07 d5 3d
       0.08734552 -0.023720553 0.13464698 0.10401782
000280 e6 97 2b be b2 42 3f be
       -0.16757163 -0.18677786

conv1.bias f4 [6]
000000 bc e4 23 be f0 93 dc 3b b5 4e a7 3d 52 cc 1b be
       -0.16005224 0.0067315027 0.08169309 -0.15214661
000010 b1 61 0a 3e 0d d1 24 be
       0.13513829 -0.16095372

conv2.weight f4 [10, 6, 3, 3]
000000 b1 18 04 be c7 f9 a5 bd 39 45 e7 bc 58 02 b2 3c
       -0.12900044 -0.08104282 -0.02823125 0.021729633
000010 ed 3d 6a bd 26 d2 ec bd aa 7d c3 bc cc 45 51 bd
       -0.057187963 -0.1156352 -0.023863632 -0.051091954
000020 81 6f 09 be c1 bd fb 3d d0 fb 46 3d 72 57 af bc
       -0.13421442 0.12292052 0.04857999 -0.021404002
000030 c7 89 e6 bd 8c 7b 33 3d 33 fc 04 be 3c 37 21 3d
       -0.11256748 0.043818995 -0.12986831 0.039359316
000040 91 c0 d2 3d 3c 5d 18 3d e3 57 97 bc e8 31 b7 bd
       0.102906354 0.03719829 -0.018474525 -0.08945066
000050 cd 0a 71 bc 68 ce b3 bb 75 54 0a be be 3a ba bd
       -0.014712048 -0.005487252 -0.1350878 -0.090932354
000060 8d e5 20 3d 7e 21 74 bd 22 24 36 bd d1 59 95 b8
       0.039281417 -0.059602253 -0.044468053 -7.121603e-05
000070 49 73 83 3d 48 55 2e 3d 81 32 f6 3d 40 57 e0 3d
       0.06418473 0.0425618 0.120213516 0.109541416
000080 74 59 a9 bd 69 7f 2a bd 4a 42 ae 3d ac 4f c1 bd
       -0.08269015 -0.041625414 0.085087374 -0.09439024
000090 71 07 a1 bd 62 8b c5 3d 12 52 da bd 56 cb 08 bc
       -0.078627475 0.09645726 -0.10660185 -0.00834926
0000a0 d3 6c 49 bd 97 1f 92 bc 9c a3 cb 3c 69 9a 2e 3d
       -0.04917605 -0.017837329 0.024858288 0.042627726
0000b0 19 a3 b8 bd 37 e6 a8 3d f5 a3 b5 3c 61 64 24 bd
       -0.090154834 0.08247035 0.022172907 -0.04013479
0000c0 e7 f0 d7 bb e7 9b 0a be 4c 6a 12 bc 3a b6 ce bd
       -0.006589997 -0.13536035 -0.008936476 -0.10093351
0000d0 4f 08 04 be a8 41 e9 bd bb 54 42 bc 51 58 5f 3d
       -0.12893794 -0.11389476 -0.011861022 0.054527584
0000e0 b4 6c 5e 3d b0 a8 5f 3c 35 2f 81 3c 05 35 c9 bd
       0.054302886 0.013651058 0.01576958 -0.09824566
0000f0 6c 8d ba bd c6 67 9a 3d 35 26 c5 bd 91 3c e4 bc
       -0.09109005 0.075393245 -0.09626428 -0.027860912
000100 5c 93 95 bd 9c a2 d2 bd 23 0a 0a 3e 01 33 8a bc
       -0.07303497 -0.102849215 0.1348043 -0.016870024
000110 d6 1d ed bd ce 27 b3 3c 4e ab 73 bd 70 17 77 3d
       -0.115779564 0.021869566 -0.05948954 0.060325086
000120 2a 5f bf 3d a5 a1 23 bd 3e 83 06 be 9d 47 b6 bd
       0.09344323 -0.039949078 -0.13136002 -0.08900378
000130 40 87 02 be 12 d6 04 be e6 23 07 be 5a 3c df 3d
       -0.12746906 -0.12972286 -0.13197288 0.10900183
000140 49 64 e4 3d 3f f0 02 bd c3 9e b2 bd 56 e6 cf 3d
       0.111519404 -0.031967398 -0.08721688 0.10151355
000150 09 d4 c8 bd 80 d2 96 3d bc b2 db 3d 73 cb f7 3d
       -0.098060675 0.073643684 0.1072745 0.12099352
000160 3b ea cc 3d 25 e0 f7 3c 63 28 8d bd d9 7f 71 bd
       0.100056134 0.030258248 -0.06892469 -0.058959816
000170 73 7d 5f 3d 1f fb 80 ba 75 f9 33 bd 53 dd d7 bd
       0.054562997 -0.0009840465 -0.043939073 -0.10540261
000180 da 63 de bd f0 6e ef bd e4 f2 e1 bd c7 9a b6 3c
       -0.10858889 -0.116910815 -0.11032656 0.0222906
000190 2d 08 26 bd bb 02 ea 3c 16 47 33 3d 1b 23 4a 3c
       -0.04053514 0.028565755 0.043768965 0.012337471
0001a0 02 fc f1 bd 27 4c c4 3d 25 9e 77 bc fa 21 b7 3c
       -0.11815645 0.095848374 -0.015113388 0.022355068
0001b0 56 36 e8 3d 59 15 8c 3b ea a8 db 3d db 9e 91 3d
       0.11338489 0.004275006 0.10725577 0.071103774
0001c0 1d 83 56 bb 15 c7 e7 3c dd 66 c2 bc aa d7 c6 3c
       -0.0032731958 0.028293172 -0.02373069 0.024272759
0001d0 df ae b5 3d fa fd c5 3d a9 94 e5 3d 94 8e d6 bd
       0.08871245 0.09667583 0.11209995 -0.10476413
0001e0 6f 47 b7 3b 69 14 83 bd 40 e4 8d bd eb 78 fa 3d
       0.0055932323 -0.06400377 -0.06928301 0.122300945
0001f0 b3 83 08 3e 48 f5 a7 3d 4d 72 2b 3c 24 55 51 bd
       0.1333149 0.082010806 0.010464263 -0.051106587
000200 3b ba 27 3d 72 75 d0 3d 40 93 98 bd 39 d4 e4 3d
       0.040949088 0.10178651 -0.07449961 0.11173291
000210 29 c0 c7 3d 75 e6 a1 3c 0b 97 cf bd 25 07 bc bd
       0.097534485 0.01976321 -0.10136231 -0.0918105
000220 e9 f7 27 3d 05 d2 d2 bb 4c a3 81 bd c7 cc 80 bd
       0.04100791 -0.0064337277 -0.063299745 -0.06289058
000230 7f bc 9f 3c eb 64 c1 3c 15 35 b3 bd 8b ef c1 3d
       0.019499062 0.023607692 -0.08750359 0.09469517
000240 c4 62 fe bd a8 60 75 bd e4 b7 5e 3c 89 e5 a5 3d
       -0.12421182 -0.05990663 0.013593648 0.08100421
000250 82 32 16 bd 9c 32 54 bd 2e 85 b1 3c 90 b8 bd bd
       -0.03666926 -0.051806077 0.02166995 -0.09263718
000260 e7 7c 08 be 42 e8 89 bc 7a 80 38 3d 88 10 3b 3d
       -0.13328896 -0.016834382 0.0450444 0.045670062
000270 cb 06 8a 3d 9f 91 a6 bd c3 3a fc 3d 48 e4 dd 3d
       0.06739577 -0.08133244 0.123158954 0.10834557
000280 e7 4d d6 3b 45 a5 7a 3d bb 2a 45 3d 56 5a 3b 3d
       0.0065400484 0.06119277 0.048136454 0.045740448
000290 ec 90 02 3e 36 b1 7a 3d 53 22 44 bd be 07 c8 3c
       0.12750596 0.061204158 -0.047884297 0.024417754
0002a0 1f de 1e 3d cc 35 d8 bd ef 33 18 bd 31 fe b8 bd
       0.03878605 -0.10557136 -0.037158903 -0.09032858
0002b0 ca 3f a7 3d 60 44 f9 bc 1e c4 08 be 36 42 3a 3d
       0.08166464 -0.030428112 -0.13356063 0.0454733
0002c0 b7 bb b1 3c 92 2a ac 3d 15 85 e7 3b 57 ae 2d bd
       0.021695955 0.08406557 0.007065425 -0.04240259
0002d0 0a 51 a1 bd 27 a3 04 bd 27 1f e8 bd 73 c2 07 3d
       -0.07876785 -0.032382157 -0.11334067 0.033144426
0002e0 bb e8 f5 3d 7d dd f1 3c d1 7a b3 bd 97 14 ae 3c
       0.120072804 0.02952456 -0.0876366 0.021250052
0002f0 52 88 1e 3d 82 88 86 3b e8 15 b2 3b 8c 7d 91 3d
       0.038704224 0.0041056285 0.0054347403 0.07104024
000300 cb e3 e4 bd dd c3 37 bd 0b b9 e3 3d f6 26 a2 3c
       -0.111762606 -0.044864524 0.111192785 0.019793969
000310 d6 cd b5 bd d3 e8 90 bd e7 ef f7 bd 2b ad 39 bd
       -0.08877151 -0.07075658 -0.121063046 -0.04533116
000320 13 63 90 bb 45 23 34 3d f7 11 1b bd 50 3d 9c 3b
       -0.004406342 0.04397895 -0.03785893 0.004768051
000330 a7 81 00 3d 25 ff 9f bc c8 68 ab bd a4 59 ee bd
       0.031373646 -0.019530842 -0.08369595 -0.11638191
000340 9b fb 2b 3c 90 b4 7a bd e0 f2 e7 bd bf 75 4b 3d
       0.010496999 -0.061207354 -0.113256216 0.04967284
000350 e5 67 41 bd 0e 22 24 3d 55 91 08 3e a4 ed 9c bc
       -0.047218222 0.04007154 0.1333669 -0.019156285
000360 b2 dc 82 3d ae bb 19 bd a7 b4 af 3d 71 eb 01 3e
       0.063897505 -0.0375325 0.085793786 0.1268747
000370 1b bf 08 3e e0 dd c3 3d 02 7e 97 3d 96 a4 94 bd
       0.13354151 0.09563804 0.07397081 -0.07257955
000380 92 20 a9 3d 79 15 9c bd 63 29 ad 3d 28 0e c1 3d
       0.082581654 -0.07621283 0.084551595 0.09426528
000390 f0 3d ec bd da 65 85 bd 33 fa dd 3d 40 bc 8d bd
       -0.11535251 -0.06513567 0.10838737 -0.069206715
0003a0 c4 da 3b bd 3a 6c 95 3d e0 a9 55 3d 1c 29 ac bd
       -0.045862928 0.07296033 0.05216396 -0.084062785
0003b0 09 42 30 3d b0 b9 3f 3d a1 85 00 be 20 01 60 bd
       0.043031726 0.046807945 -0.12550975 -0.054688573
0003c0 5a 56 13 bd 9a 27 09 3e 2f b8 29 bd 50 ae f4 3d
       -0.035971023 0.13394013 -0.041435417 0.1194731
0003d0 ca 84 ba 3c 58 3b 03 3e 0b e8 25 3d e1 66 f3 3d
       0.022768397 0.12815607 0.040504497 0.11884857
0003e0 0d 70 c5 3d 26 52 a5 bc ac 61 74 bd 84 a2 1b 3c
       0.096405126 -0.020180773 -0.05966346 0.009499196
0003f0 6c c7 ea 3d e5 61 7d 3c 64 67 5d 3d 91 51 2a 3d
       0.11463818 0.015465234 0.05405368 0.041581694

conv2.bias f4 [10]
000000 ea 87 ff 3d be 43 a2 3d b3 ca c7 bd f3 b4 b3 3d
       0.124770954 0.07923077 -0.09755459 0.08774748
000010 99 f3 cc bc b9 5b 91 bd 89 97 98 3d 2a 67 af bc
       -0.0250185 -0.07097573 0.07450778 -0.021411497
000020 08 f7 8f 3d 3e d6 35 bc
       0.07029539 -0.011098443

linear_1.weight f4 [300, 640]
000000 45 cd 34 bc 2f 00 04 3d 00 e6 f5 bc 5f 17 14 3d
       -0.011035268 0.032226738 -0.0300169 0.0361551
000010 27 0b 90 bc 61 dc 8d bc 1a a5 39 3c a7 07 18 3b
       -0.017583443 -0.017316999 0.011330867 0.002319792
000020 b2 02 3c bc ff eb 12 bd 3e 11 cc 3c bd 73 b1 3c
       -0.011475252 -0.035869595 0.024910565 0.021661634
000030 18 86 03 3d 0b 83 bf bc 64 63 0d 3c d4 71 a2 bc
       0.032110304 -0.023377916 0.008629654 -0.019829668
000040 8e 80 bc 3b db b4 f5 bc 38 19 0c bd ae 63 19 3c
       0.0057526296 -0.029993465 -0.034203738 0.009362144
000050 1f 97 dd bc aa 3e 1a 3d 2e c4 3e bc 98 2a c0 3c
       -0.0270496 0.037657417 -0.011643453 0.02345781
000060 2a e7 ae 3c 18 c7 4c 3c b4 2b b8 bc 0b 92 dc bc
       0.021350462 0.0124986395 -0.022481777 -0.026925107
000070 ea 2a 10 bd dd 01 f9 3b 81 3d c4 bc 4d d6 34 3c
       -0.035197176 0.007599099 -0.023955109 0.011037421
000080 27 1c 82 3b 8b 32 09 3d 87 45 82 bc 19 39 fe 3a
       0.003970641 0.033495467 -0.015902294 0.0019395679
000090 a0 10 02 3d c8 1c a3 bc 0a db 1e 3d b8 32 48 3c
       0.031754136 -0.019911185 0.03878311 0.012219124
0000a0 7b 1c 24 3c a3 17 b1 3b 96 9e f3 bc 70 a7 ec bc
       0.010016556 0.005404429 -0.029738706 -0.028888434
0000b0 76 bf d2 bb c7 75 f5 bc 8f 93 f8 3c aa 42 20 bd
       -0.0064315153 -0.029963387 0.030343799 -0.039126076
0000c0 f2 ae 0a 3d 64 d9 98 39 52 61 f5 3c 72 b5 f3 3c
       0.033858247 0.00029153668 0.029953633 0.029749606
0000d0 48 fc e0 bc 81 c5 f6 3c b4 a8 80 bc 33 07 20 3d
       -0.027464047 0.030123474 -0.015705444 0.039069366
0000e0 2f b4 10 3b 68 1e 1f 3c 96 23 73 3c 0d de 11 3c
       0.0022080054 0.009711839 0.014840027 0.008903039
0000f0 c5 df c1 bc 7f b6 ad 3c ec 06 dd 3c da a9 f9 bc
       -0.023666272 0.021205185 0.02698084 -0.0304765
000100 88 da b7 3c 43 ac bf 3c 41 24 4f 3c df 80 69 bc
       0.022443071 0.02339757 0.012642921 -0.014251917
000110 bb a4 8d 3b fe 66 db bb 07 4b 78 3c 19 ff 00 3d
       0.004322616 -0.0066956272 0.015154607 0.03149328
000120 ae e6 a6 3c 33 a2 c0 bc ce 07 37 bc 36 9d 6f 3c
       0.020373669 -0.023514843 -0.011171294 0.014624884
000130 da a8 c7 bc d6 5e 66 bc e8 e8 22 3b f9 f8 11 bc
       -0.024372507 -0.014060697 0.0024858061 -0.008909457
000140 c9 7c 8e bc b9 3a 6f 3c a7 e8 4c bc 63 03 c2 bc
       -0.017393487 0.014601403 -0.0125066405 -0.023683256
000150 09 6b 17 3d d0 46 1a bd 5b a3 0d bd 02 1a f6 3c
       0.03696731 -0.03766519 -0.034579616 0.030041698
000160 60 9d 19 3c 25 24 aa 3c b9 e6 df bc ff ad 19 bd
       0.0093759 0.020769188 -0.027331697 -0.03751945
000170 ae 5b e7 3c 0d 79 ad bc eb a1 9f 3b de 44 07 3d
       0.028241958 -0.021175886 0.004871597 0.03302466
000180 38 f4 dd 3c 08 c2 04 bd f0 1e 2c bc 8a 9e 14 bd
       0.027093992 -0.032411605 -0.010505423 -0.036284007
000190 91 17 85 3c 49 72 12 3d 25 b4 f2 bc c2 4f 09 bd
       0.016246589 0.035753522 -0.029626915 -0.03352333
0001a0 85 b7 bc bc 57 61 d8 bc 03 2d 1c bc 6a f0 04 3d
       -0.023036728 -0.026413603 -0.009532216 0.03245584
0001b0 d5 23 3e bc a1 b5 00 3c 2a 7b c0 bb 2d 54 91 bc
       -0.011605223 0.007855804 -0.0058740573 -0.017740333
0001c0 a6 05 a5 3c 27 3e 0b bd 91 27 a9 3c 75 13 0f bc
       0.020144295 -0.03399482 0.02064875 -0.008732666
0001d0 6f 9e ed bc 14 cc dd bb 45 5a 59 3c 7b c7 db 3c
       -0.029006211 -0.006768713 0.013266151 0.026828518
0001e0 49 7f 1e 3d fa 0a d4 3c 7a a3 ef bb 73 7e d4 3a
       0.038695607 0.02588414 -0.007313189 0.0016212001
0001f0 6f 23 90 bc 9d a9 54 bc 6a e2 9a bb f9 87 90 bc
       -0.017595021 -0.012979892 -0.0047266977 -0.017642962
000200 c8 28 b2 3c cf 77 4e 3c 72 91 20 3d 69 35 8d 3c
       0.021747962 0.012601807 0.039201207 0.017237382
000210 96 27 f9 3c 0f e8 49 b9 9e 8a 8c 3c ce 2b 12 3c
       0.030414384 -0.00019255302 0.017155942 0.008921577
000220 9f 8c 9c 3c 72 d4 5b bc 52 69 2a 3c 95 11 f0 bc
       0.019110022 -0.01341735 0.010401087 -0.029305259
000230 ae eb 40 bc f6 8e 10 bd 7f 3b 08 3b 1e 4a 1e 3d
       -0.01177494 -0.03529259 0.0020787416 0.038644902
000240 c1 f7 f3 3c ef 2b fb bc 34 d0 dc bb 38 be fb bc
       0.029781224 -0.030660598 -0.006738687 -0.030730352
000250 0c e4 fc bb 7c 6b 80 3c 7f 11 15 3d 81 f3 bc 3b
       -0.007717615 0.015676253 0.03639364 0.0057663326
000260 5a 22 55 3c 81 8a 80 bc 4b d1 c6 3b a6 d1 2c bc
       0.013008678 -0.015691044 0.00606743 -0.010548031
000270 b0 9f b8 3c 0b 81 38 39 06 01 da bc 31 52 0d bd
       0.022537082 0.0001759568 -0.026611816 -0.034502212
000280 ca bb 02 3d f6 87 13 3d 13 54 0f bd 9a 22 a3 bc
       0.03191737 0.036018334 -0.03499229 -0.01991396
000290 13 e4 5d bc 64 35 6c bb b0 bb 4c 3c 3a a4 ec 3b
       -0.013543147 -0.0036042565 0.01249592 0.007221726
0002a0 d5 0a 4e 3c 59 fd 0c 3d 1f 53 77 3b a3 b7 af bb
       0.012575825 0.0344213 0.0037738753 -0.0053624674
0002b0 ce 51 9c 3c 93 5c f1 bb 62 e3 b2 3c e6 27 06 3c
       0.019081976 -0.007365772 0.02183694 0.0081882235
0002c0 34 cb df 3c 7e b2 0d bd ca 8f ec bc 5a 0a d7 bc
       0.027318574 -0.03459405 -0.028877158 -0.026250053
0002d0 8f ea b7 3b 10 97 28 3c 86 d2 1c bd 38 25 d8 3a
       0.0056126784 0.010289922 -0.03828671 0.0016490584
0002e0 d7 85 8a 3c 1e 20 04 3d e3 7b c2 bb 1a 49 5d bc
       0.016909523 0.03225719 -0.0059351786 -0.013506198
0002f0 79 99 ca bc aa cb ef 3c bb 45 e8 3c b0 da fc bc
       -0.024731385 0.02927192 0.028353563 -0.030865997
000300 0e c6 97 bc a2 53 73 3c 14 80 69 3c 14 08 80 bc
       -0.018527057 0.014851483 0.014251728 -0.015628852
000310 ed d4 18 bd 4f eb ff 3c 9c 75 89 bc c0 db fa 3c
       -0.037312437 0.031240134 -0.016779713 0.030622363
000320 ca d1 d3 bc e9 06 93 bc dd bf 19 bd 79 a5 1b bd
       -0.025856871 -0.017947631 -0.03753649 -0.037999604
000330 2c 94 0c bd 9a 60 ff bc 65 83 cd bc 29 76 81 bc
       -0.034320995 -0.031173993 -0.025087068 -0.015803413
000340 1a 45 1c 3d ab c1 06 bd 07 bd 12 3d 50 f2 8e 3c
       0.038151838 -0.03289954 0.0358248 0.017449528
000350 6b e3 b6 3b e3 df d4 3b 48 a4 2e 3c 12 62 19 3d
       0.0055813096 0.006496416 0.010659285 0.037447043
000360 0c 26 3b bc 46 19 74 bc 04 f8 ca 3b 97 51 e8 bb
       -0.011422645 -0.014898604 0.0061941165 -0.0070898044
000370 b6 09 ec 3c b4 b4 61 3c 52 ac 0a bc 41 ee 64 bc
       0.028813224 0.013775993 -0.008463936 -0.01397282
000380 5e 9f f9 3c 2d 2b a6 3c 81 a5 06 bd 28 16 07 3c
       0.0304715 0.02028426 -0.03287268 0.008245029
000390 b3 33 19 bd 34 a3 87 bc 3b f5 c7 bc 07 84 7f 3c
       -0.03740282 -0.016557314 -0.024408927 0.015595443
0003a0 7a 2c c2 3a 1b a0 cd bc ca 80 cd bc 09 79 6e bb
       0.001481428 -0.025100758 -0.025085825 -0.003638806
0003b0 01 a8 bf bb ff ac d9 bc bd 5e ce bc 8d 39 51 bb
       -0.005848885 -0.026571749 -0.02519166 -0.0031925172
0003c0 d1 5d cf bc cc ec f5 bb 66 81 68 bc c7 8d c6 bc
       -0.02531329 -0.007505035 -0.014191007 -0.024237527
0003d0 67 9e 89 bc b8 60 50 3c 97 d6 8c bc be ee c3 bc
       -0.016799165 0.012718372 -0.017192168 -0.023917552
0003e0 09 4e 2f 3c 5f b5 21 bd 3f b4 cf bc 32 f3 a2 bc
       0.010699757 -0.03947961 -0.025354503 -0.019891355
0003f0 a4 a1 f6 3b 31 1e f0 bc 3e cb b4 bc 7f 98 20 bd
       0.0075265933 -0.029311271 -0.02206957 -0.03920793

linear_1.bias f4 [300]
000000 04 68 57 bc 47 0e a7 3c 86 fd 0f bd e5 fe 09 bd
       -0.013147358 0.02039255 -0.03515389 -0.033690352
000010 77 c9 b4 bc e1 c7 d8 bb 84 3b 95 3c d4 21 0e bd
       -0.022068722 -0.0066156243 0.018216856 -0.03470023
000020 4f b0 cd bc 88 1b eb bc f4 db cc 3c 15 1d ce 3c
       -0.025108485 -0.028699651 0.025007226 0.025160352
000030 f2 6f 68 3b 5f 10 5c bb b3 83 29 bc c6 bd 20 bd
       0.0035467115 -0.0033579094 -0.010346341 -0.039243482
000040 3c 96 06 3d f3 50 c7 bc c1 81 c6 bc d7 fe a4 3c
       0.03285812 -0.024330592 -0.024231793 0.020141048
000050 df 57 a7 bc 18 9e f6 bc 1a 66 b1 3b c7 a2 9f bc
       -0.020427642 -0.030104682 0.005413783 -0.019486798
000060 fb ad f7 bc 5c ad e6 3c 43 c1 c1 3c f7 09 42 bc
       -0.030234328 0.028158836 0.023651725 -0.011843196
000070 dc bc 06 bb 03 6b f6 bb b7 3e 2b bc 10 fd 75 bc
       -0.0020559346 -0.007520081 -0.010451964 -0.015013948
000080 ff 33 34 3c e6 f4 21 3c 46 69 0f 3c f8 59 8e bb
       0.010998725 0.0098850485 0.0087531265 -0.004344221
000090 b7 c7 44 3a 79 31 0b 3c 62 c4 8d bc 26 80 c1 bc
       0.00075065665 0.008495682 -0.017305557 -0.023620676
0000a0 d3 2e 62 3c 5f 5e a7 bb fa 72 82 3c bf f2 8b bb
       0.013805109 -0.0051076855 0.015923966 -0.004270881
0000b0 08 02 19 3d c1 0e d6 3c 7f 8e 98 3c e4 27 97 3c
       0.037355453 0.026130082 0.018622635 0.018451639
0000c0 12 df 50 3c 6c 2d 14 3d 9d 5e c6 3c 02 9c 2c bc
       0.012748497 0.03617613 0.024215037 -0.010535242
0000d0 85 f2 14 3d e5 7c 55 bc c5 8c d9 3c ec 8c 9b 3c
       0.036364097 -0.013030265 0.026556382 0.018988095
0000e0 58 db 4e bc 3d 6b e4 bc 05 34 f6 3c 4d ae 24 bc
       -0.012625538 -0.027883166 0.030054102 -0.010051322
0000f0 0e da c4 3a 79 82 49 bb a4 09 80 3a 49 f7 f7 3b
       0.0015018599 -0.0030747934 0.0009768498 0.0075673205
000100 14 ba c4 3b 18 af 65 3c da ab 11 bd fb b5 ae 3c
       0.0060036276 0.014018796 -0.03556428 0.02132701
000110 41 1c 11 3d 05 c7 03 bb 82 9a 89 39 a4 2a cc bb
       0.035427336 -0.0020107639 0.00026245794 -0.006230669
000120 81 16 e0 3c d3 66 d0 3b ed 81 ff 3c bc 0d f6 bc
       0.02735448 0.006359914 0.031189883 -0.030035846
000130 20 e6 10 3d 65 9c 03 bd fc 45 cb bc 22 30 8f bb
       0.035375714 -0.03213157 -0.024813645 -0.0043697516
000140 fe 8a 39 ba 1d eb bf 3c 31 a8 fe bc 38 cb b0 3c
       -0.00070779014 0.02342754 -0.03108606 0.021581277
000150 46 ad 01 3b e5 16 97 bc f5 df d6 bc e5 dc 46 3c
       0.0019787117 -0.018443534 -0.026229838 0.012137626
000160 8a 67 77 3c 8b f1 ad bc a3 81 c5 3c 07 53 31 3c
       0.015100369 -0.02123334 0.024109667 0.010823018
000170 f8 75 12 bd 24 3b 11 bd a4 39 76 bc 94 e2 e8 3b
       -0.035757035 -0.03545679 -0.015028391 0.0071070883
000180 8b f8 82 3c 71 ea 6b ba e6 49 13 3d 90 27 a0 3c
       0.015987655 -0.0008999473 0.035959147 0.019550115
000190 bd aa 15 3d 91 97 04 3d e7 cb 4a bc d5 8a e1 bc
       0.03653978 0.032371107 -0.012377716 -0.02753202
0001a0 d8 f3 a0 ba 0a 34 e0 bc 94 d4 23 bc 81 5a 48 3c
       -0.0012279702 -0.027368564 -0.009999413 0.012228609
0001b0 fb 6a 4a bb ef 71 a6 3c 86 a1 96 3c 52 28 db 3c
       -0.003088652 0.020318 0.018387567 0.026752625
0001c0 71 7d 41 3b a7 9d ef bc 47 3b c0 bc 09 9f fd bc
       0.0029524232 -0.02924998 -0.023465766 -0.030959623
0001d0 a8 3b 8d bc 03 4e e8 3c 49 dc d0 bc 6b de eb bc
       -0.01724036 0.028357511 -0.025495665 -0.02879258
0001e0 f0 55 18 3c 9a e5 2e bc 9a c7 8b bc 8e eb bd bc
       0.009297833 -0.0106748585 -0.01706295 -0.02318361
0001f0 30 13 2a bb f4 b7 cc 3b db 11 08 3d f7 2b 9f bc
       -0.0025951378 0.006247515 0.033220153 -0.019430144
000200 ff 60 13 3c 83 27 d5 bb f9 75 c9 3c 0c 8c 54 ba
       0.008995294 -0.0065049543 0.024592387 -0.0008108027
000210 d6 de dd 3c 6d 2a 19 bd d9 31 8e bc d3 d1 05 3b
       0.027083796 -0.037393976 -0.017357754 0.0020419254
000220 c0 b8 dd 3b bd 30 4e 3c c9 4f cc 3c 13 c6 37 3b
       0.0067664087 0.012584862 0.024940388 0.0028041645
000230 3b 7f 49 3c 32 0a 16 3d e3 b6 29 3c f6 2b 8a 3c
       0.0122984005 0.036630817 0.010358545 0.016866665
000240 e4 b6 ff 3c 4e da 92 bb 6d c0 a9 bc 23 e5 a1 3c
       0.031215139 -0.0044815904 -0.020721639 0.019762581
000250 c0 22 18 bc 81 5b a5 bc 59 9e d7 ba 17 97 9e bc
       -0.009285629 -0.020185234 -0.001645039 -0.019359155
000260 19 b2 f2 3b f8 89 74 bc 7b cc 13 bd 59 a4 d9 3c
       0.007406485 -0.014925472 -0.03608368 0.026567625
000270 12 8a a2 3c 0a ea 56 bc 75 37 c9 3c a5 3a 86 bc
       0.019841228 -0.013117323 0.024562577 -0.016385386
000280 0f e1 86 3c cc 89 16 bd 03 4c 6b 3a c2 84 0c 3d
       0.016464738 -0.036752507 0.0008975865 0.034306295
000290 27 25 9a 3c 6b 4c 17 3d a5 6a 0f 3d dd 2d 50 bb
       0.018816544 0.036938112 0.035013814 -0.0031765618
0002a0 6b 29 a0 bb 96 ad 51 3c 53 90 cc 3c 2b 52 02 3d
       -0.00488775 0.012797734 0.024971163 0.031816643
0002b0 05 f2 cc bc f3 f3 a7 bb 94 12 4e 3c bb 45 20 bd
       -0.025017748 -0.0051255166 0.012577672 -0.039129
0002c0 f0 9d 0a 3d 73 63 74 3b 7a ca 86 bc db 62 b8 bc
       0.033842027 0.0037290722 -0.01645397 -0.022508075
0002d0 04 7a eb bc b7 9f 96 3c 6f 97 ac 3c 49 45 06 bc
       -0.028744705 0.018386705 0.021068303 -0.00819523
0002e0 a4 c4 21 bd 33 9a 10 bd b8 76 80 bc a5 f9 7f bc
       -0.03949417 -0.035303306 -0.01568161 -0.015623485
0002f0 48 e6 2f bb 4c 22 7c bc 2c 5c 86 3b a3 13 15 bd
       -0.002684014 -0.015389036 0.004100343 -0.03639568
000300 d8 db 0c 3d ac d8 9a bc f4 4d ab bc 31 52 dd 3c
       0.034389347 -0.018902145 -0.020911194 0.027016731
000310 50 6f f3 bc 96 3a b8 bc a4 3b 40 bc 0f fd 27 bc
       -0.029716164 -0.022488873 -0.011732969 -0.010253205
000320 50 31 7b 3c c1 73 14 bd be 21 7f bc 2a 47 96 3b
       0.015331581 -0.036243204 -0.01557201 0.00458612
000330 0b 6e 16 3d 5a ca 28 3c 92 4c 58 bc 87 d7 a1 ba
       0.03672604 0.010302151 -0.01320185 -0.0012347557
000340 7d fe 0d bd d0 1a bb bc 57 34 ec 3c f1 35 0f bd
       -0.034666527 -0.022839934 0.028833551 -0.034963552
000350 12 c5 75 3b ba 2f 37 3c fc 9d a9 3c 75 3d d1 bc
       0.0037501496 0.0111808125 0.020705216 -0.025542
000360 74 5b 08 bc 31 ea ca 3c 0f f4 e0 bc d9 f7 19 3d
       -0.008322585 0.024769874 -0.027460126 0.03758988
000370 17 f5 d0 38 af 85 9f 3c 27 93 66 3b be 1d 0a 3c
       9.9638644e-05 0.019472925 0.0035182924 0.008429943
000380 10 c8 f0 bc a3 8e 7e bc 25 0b 09 bd a5 b2 d7 bc
       -0.029392272 -0.015536937 -0.033457894 -0.026330302
000390 70 46 d1 bb 8f 93 f1 bc 91 69 6c ba f5 77 d1 3c
       -0.0063865706 -0.029489307 -0.0009018416 0.025569895
0003a0 24 6e a2 3c eb c5 08 3d 5b 4d 13 3d 48 d7 07 3d
       0.01982791 0.033391874 0.035962444 0.033164293
0003b0 dd af 05 3d 5a 72 0d 3d 22 26 0f bd 1f 88 a0 3c
       0.03263842 0.034532882 -0.034948476 0.019596158
0003c0 9f 07 86 bc 66 b8 04 bc 6b 53 b0 3b dd 7c a6 ba
       -0.016361056 -0.008100605 0.005381038 -0.0012702007
0003d0 8b 83 33 bc ba 37 fd 3b 1e 01 1c 3c 22 89 5c 3c
       -0.010956655 0.0077275904 0.009521751 0.013460429
0003e0 89 e2 9a bc 4a 8e 09 bd 0a 14 ce bb 53 ca a7 3b
       -0.018906849 -0.033582963 -0.00628901 0.0051205545
0003f0 35 03 7c 3a 55 b0 f1 bb d7 56 12 bd ef 2c 1f bd
       0.0009613515 -0.0073757567 -0.03572735 -0.03886121

linear_2.weight f4 [100, 300]
000000 b9 83 8b 3c fa f5 b0 bc 8d ed 16 bc f8 28 45 bd
       0.017030584 -0.021601666 -0.00921191 -0.048134774
000010 fb 32 60 bd 3b 82 f6 3b 9a 47 1e bd 55 20 0e 3d
       -0.05473612 0.007522849 -0.038642503 0.034698803
000020 90 81 c6 bb 21 83 0a 3d 72 1a 3d 3c 5a cd 6a bc
       -0.0060579255 0.03381646 0.01154195 -0.014331186
000030 c2 c3 5e bd ec dc e6 bc 09 ea 61 bd 74 72 04 3c
       -0.054385908 -0.028181516 -0.055154834 0.008083928
000040 7c d7 38 3c 0e 67 00 3d 48 0d a4 bc 3c 0e 95 ba
       0.011281844 0.03134828 -0.020025864 -0.001137204
000050 5d 37 67 3d cf 5c cc bc 60 ae 90 bc 6e a1 35 bd
       0.056449283 -0.024946598 -0.017661273 -0.044343404
000060 f4 f6 ad 3a 30 2f 73 bc 7d 1c 67 bd 0c a4 43 bd
       0.001327245 -0.014842793 -0.056423653 -0.04776387
000070 e7 3d 5f 3d 74 8a 00 3d 33 bb ca bc cf 7e 71 3c
       0.054502394 0.03138204 -0.024747467 0.014739706
000080 cc 95 9a 3c 15 ae e7 3c 89 d9 23 bc 34 7b e6 3c
       0.018870257 0.028281251 -0.010000595 0.02813492
000090 5b 3f 68 3c 2d 69 9b bc 30 f7 38 3d e1 2e 4a bd
       0.014175261 -0.01897105 0.04515761 -0.049361113
0000a0 23 38 7d bc 28 d0 f7 bc 38 5f 20 3d d2 60 dc b9
       -0.015455279 -0.030250624 0.039153308 -0.00042033807
0000b0 26 3c 38 3c fc 2a a9 bb 95 0a 3f bd 2d c5 0b 3d
       0.011244809 -0.005162595 -0.04664095 0.03412359
0000c0 9d 32 44 bd 5c d0 93 3c c4 aa 34 bd 22 19 80 3c
       -0.04789983 0.01804369 -0.044108167 0.015636984
0000d0 95 8f fb 3c 9c b1 62 3d 3d de 2e bc 27 33 34 3d
       0.030708114 0.055345163 -0.010673103 0.043994095
0000e0 21 6e 51 3a d3 b7 58 3d 49 d2 1b 3b 4d c0 3b 3d
       0.0007989128 0.052909683 0.0023776463 0.04583769
0000f0 03 9c f5 bc e8 67 e1 3b a2 f2 08 bd ef 29 ee bc
       -0.029981619 0.0068788417 -0.033434518 -0.02907273
000100 09 d0 10 3d 0b f4 a5 bc 33 a9 d4 3c 31 a4 1b 3d
       0.035354648 -0.02025797 0.025959587 0.037998382
000110 2e 80 45 bd 8c 57 8a 3c b4 05 09 3d 95 87 ad bc
       -0.048217945 0.016887449 0.033452705 -0.021182815
000120 a1 14 55 3c 7b dc 05 3c ec a2 9d bc d9 32 46 bd
       0.013005407 0.008170242 -0.019242726 -0.048388336
000130 13 a8 09 bc 1c 02 64 ba 44 72 5d bd e8 94 f1 bc
       -0.008401888 -0.0008697824 -0.05406405 -0.02948995
000140 53 54 3d 3d 7b 88 ba 3c dd 75 07 3d 4c e8 af 3c
       0.046222996 0.022770157 0.033071388 0.021473072
000150 ff 4a c8 3c f6 9e 2b bd 43 65 51 bd 8a 68 51 3d
       0.024449823 -0.041899644 -0.05112196 0.051125087
000160 23 ce 58 3d 81 e4 73 3a 63 c0 e6 3c 5d 20 46 3c
       0.052930962 0.0009303764 0.028167909 0.012092677
000170 31 31 f9 bc 45 9d 48 3b 47 2f 07 bd 65 2d 6a 3b
       -0.030418964 0.0030611318 -0.03300407 0.0035732624
000180 ea 96 2b bc cd c5 68 bd eb dd 28 bd 18 b0 47 bd
       -0.010472992 -0.056829263 -0.041227262 -0.04875192
000190 ff ca 6f 3c 9d 95 7c bc b9 07 02 3d b2 a6 d7 b9
       0.0146358 -0.01541653 0.031745646 -0.00041132193
0001a0 aa 21 1e bc 0d 94 58 3d 79 ee d2 bb 62 8b ff 3b
       -0.009651581 0.052875567 -0.0064371196 0.007798598
0001b0 7c 82 f8 bc df 3a c9 3c 80 e9 37 bd ee 8a 08 bd
       -0.030335657 0.024564205 -0.044900417 -0.03333562
0001c0 5d b9 78 3c 84 1c 0b 3d 74 d4 47 bd 4b 1e 66 3d
       0.015180913 0.03396274 -0.048786595 0.056181233
0001d0 1b b6 b5 3c 12 f8 d2 bc a2 d0 e8 3c c2 d4 ee bc
       0.022181561 -0.025753055 0.028419796 -0.029154185
0001e0 85 f9 8f bc ed 84 20 3d f0 d4 58 3d a9 82 9e 3c
       -0.017575035 0.039189268 0.052937448 0.019349413
0001f0 19 bc 17 bd 30 37 1b bd ef a5 86 bc 19 36 1f bd
       -0.03704462 -0.037894428 -0.016436545 -0.03886995
000200 bc 21 1e 3d b1 a7 06 bd 19 3a 2e bc ca 46 32 bd
       0.03860639 -0.032874767 -0.010633969 -0.04352454
000210 6d 42 4e 3d 6d 8a a7 3c b1 3a 30 3d 48 d2 88 bb
       0.050356317 0.020451749 0.043024722 -0.004175458
000220 f2 ca 20 3d 12 9a 5a bd 8e e5 20 3c 91 3d 57 bd
       0.039256044 -0.05336959 0.009820355 -0.05254895
000230 aa 90 c4 3c 20 2b 4d 3d 3a 9b 27 bd 3a 89 de bb
       0.023994762 0.050089955 -0.04091952 -0.006791261
000240 b8 49 23 bd 9f 43 c3 bc 54 2d 18 bd 4c 61 2a 3d
       -0.039865226 -0.023835955 -0.037152603 0.041596696
000250 2d 94 a0 3c 65 32 5e ba 96 c9 46 bc c9 45 05 3d
       0.019601906 -0.00084761373 -0.012133023 0.032537255
000260 16 29 6d bc 97 05 48 3d f2 2b 17 bd 4c e0 e2 3c
       -0.014475128 0.048833456 -0.036907144 0.027694844
000270 34 2f bc 3c 28 a9 01 bd 3f f3 17 3d 56 0d 00 bd
       0.022971727 -0.03165546 0.037097212 -0.03126272
000280 67 96 ad bc a6 88 b2 bc 4c 84 ce bc 47 ff fe bc
       -0.021189881 -0.021793675 -0.025209568 -0.031127585
000290 44 a1 eb bb 2f e2 77 3c 34 29 f6 bc 17 75 c6 3b
       -0.007190855 0.01512961 -0.030048944 0.0060564387
0002a0 7d 18 9c bb 4f 31 b3 3b 97 7e 94 ba f1 fc 23 bd
       -0.0047636614 0.0054685245 -0.0011329231 -0.040036146
0002b0 9e 3a 47 3d 8a 47 61 bd 22 47 b3 3b 14 52 63 3c
       0.048639886 -0.054999866 0.005471126 0.013874549
0002c0 b0 e8 36 3d 9c 1c 9a 3c 20 bb c1 3c ed db 48 3d
       0.0446555 0.01881247 0.023648798 0.049037863
0002d0 8a 82 40 bd df ec 1b 3d 67 5b a2 bc 44 48 8d bc
       -0.04699949 0.038067695 -0.019818975 -0.017246373
0002e0 bc 94 3b bc cc 52 1c bd 50 3a 34 bd 36 84 9c 3c
       -0.011449035 -0.0381649 -0.044000924 0.019106012
0002f0 af cb 83 3c 3a d3 28 3d b1 ab 8b bc ce 20 d7 bb
       0.016088335 0.041217066 -0.017049642 -0.00656519
000300 61 7e aa 3c 0e 70 5e 3b 3f 2a d2 3c 56 b7 3e bc
       0.020812215 0.0033941302 0.02565491 -0.01164039
000310 b5 bf 68 3d e2 81 27 ba 42 fe 2f bd 3f de e7 bb
       0.05682345 -0.00063898985 -0.04296709 -0.0070760543
000320 df 32 89 3b 50 ee 9c bc 4b dd 03 3d 90 22 24 3d
       0.0041869725 -0.019156605 0.032193463 0.040072024
000330 2f 78 bf 3c 25 ac 77 3b 43 f7 26 3d 80 d5 69 3d
       0.023372738 0.0037791815 0.04076315 0.057088375
000340 4e 28 07 3d 97 0b 56 bd d4 d4 b7 3c f3 bd 1d 3d
       0.032997422 -0.052257147 0.022440352 0.038511228
000350 fd 5f 1e bc 46 e2 bf bc fa 81 33 3d 10 87 b7 3c
       -0.00966644 -0.023423325 0.043825127 0.02240327
000360 4d 5e d9 3c 2a 56 7b 3c f1 7c 94 bc bd f5 3c bd
       0.026534224 0.015340367 -0.018125983 -0.04613279
000370 0f eb 5a bd 32 7f 46 bc 5b ba b8 3c 6e 8d 4f bd
       -0.053446826 -0.012115287 0.022549799 -0.050671987
000380 f6 ef 3d bd 5e 07 0c bd e3 12 65 3d 28 23 dd 3c
       -0.046371423 -0.034186713 0.055926215 0.026994303
000390 e5 d8 f0 3c d0 85 8d 3c e1 fc f0 3b da 63 16 bc
       0.029400298 0.01727572 0.0073543643 -0.00917908
0003a0 3b a7 29 3d c0 be 54 3d fa 29 8b 3b 17 7e 7b 3c
       0.04141925 0.051939726 0.0042469474 0.015349886
0003b0 aa 3f b5 3c 09 e9 e0 bc 76 8f 1c 3d b9 6d 53 bd
       0.022125084 -0.02745487 0.038222753 -0.05161831
0003c0 9b d8 52 3d 01 5e c8 3c 38 ce 08 3d c4 5c 82 3c
       0.051476102 0.024458887 0.03339979 0.015913375
0003d0 a3 be 4c 3d a5 45 db bc 80 c4 41 bd 58 59 dc bc
       0.049986493 -0.026766608 -0.047306538 -0.026898071
0003e0 1a bf af 3c bc 91 5a 3d b6 27 3a bd fd 1a 57 bd
       0.021453429 0.05336164 -0.045448028 -0.052515972
0003f0 e7 43 32 bc 85 1b dd bc 94 8a dc bc 62 0f 41 bd
       -0.010880447 -0.026990661 -0.026921548 -0.04713381

linear_2.bias f4 [100]
000000 9e 52 4d 3d b8 69 37 bd bd dd cf bb 96 40 12 bb
       0.050127618 -0.044778556 -0.006343572 -0.0022316328
000010 f8 3a 09 bd a4 7f cb bb 1c 52 88 bc f1 11 63 3d
       -0.033503503 -0.0062102843 -0.016640715 0.055437032
000020 70 85 5a 3d 9f 79 51 3c f6 f1 2e 3d 89 13 57 3d
       0.053349912 0.012785344 0.04271122 0.052508865
000030 0b f3 0c bd ed 84 7d 3c 20 95 6a 3d 7c ac 81 bb
       -0.03441147 0.0154735865 0.057271123 -0.0039573293
000040 13 88 0e bd e3 bf df bc 2c 35 16 bd b4 cd f7 bc
       -0.03479774 -0.027313178 -0.036671802 -0.030249454
000050 15 67 21 3d ea 18 81 bb 62 69 86 ba 75 5a 36 bd
       0.039404947 -0.0039397376 -0.0010254795 -0.04451986
000060 f0 bf c3 bc 3b 83 66 3c a0 2c 10 bd c8 ba 53 3d
       -0.023895234 0.014069374 -0.035198808 0.0516918
000070 d7 3c f4 bc a2 8a 64 3d 7e e6 d2 3c 44 89 6a 3d
       -0.029814167 0.055796273 0.025744673 0.057259813
000080 55 b8 43 3d e6 87 2f 3d d5 8a ce bb ea e0 27 bd
       0.047783215 0.042854212 -0.006303171 -0.04098598
000090 cc bb 04 3d be 4d 13 bd 82 13 cf 3c 50 d7 37 3c
       0.03240566 -0.035962813 0.025277857 0.011220768
0000a0 96 33 40 bd cf 7a 6d bc 91 a6 22 bd 31 f4 6a 3d
       -0.046924196 -0.014494612 -0.03970963 0.057361785
0000b0 6f a3 86 3c 9d 8a d5 bc 81 9e c0 bc ed b4 2c bd
       0.016435353 -0.026067073 -0.02351308 -0.04216473
0000c0 4d ea 5e bd f3 e5 de 3c 9d 64 5d bd 9d 90 0b bd
       -0.054422665 0.027209258 -0.05405103 -0.03407346
0000d0 86 ac 41 bd 4c 0d 05 3c 44 83 fd 3c 09 14 c2 3c
       -0.04728367 0.008120846 0.030946381 0.023691194
0000e0 2b c6 1b bd 79 e2 e3 3a 90 a6 5f 3d 37 b8 62 bb
       -0.038030785 0.001738622 0.054602206 -0.0034594664
0000f0 10 5d 36 bd 5a fd 41 3d 39 ad 7d 3c e4 06 40 bd
       -0.044522345 0.047360756 0.015483194 -0.04688157
000100 27 83 84 bc af fa 54 bd e8 b3 80 bc 39 9d d8 bb
       -0.01617582 -0.051996883 -0.015710786 -0.0066105393
000110 56 03 24 bd 5f 64 96 bb 5d 22 58 bc 8e 31 01 3d
       -0.040042244 -0.004589602 -0.013191787 0.0315414
000120 65 ca 2b bd f2 5d ec bb 4e 21 99 3c ca c4 af 3c
       -0.041941065 -0.0072133476 0.018692639 0.021456141
000130 09 34 bd 3c 6d 5c 61 3d 57 22 49 3d f3 d8 62 3c
       0.023096101 0.055019785 0.049105015 0.01384567
000140 32 a8 57 3b 43 42 0d 3d 83 c8 45 3d 66 f1 ce 3c
       0.0032906649 0.03448702 0.048286926 0.025261592
000150 9e 8d 2c bd 61 5d 16 3d ad d2 06 bd f6 de b8 bb
       -0.042127244 0.036710147 -0.03291576 -0.0056418134
000160 00 46 05 3d a7 e5 08 3d 8b 2d 19 3d 80 72 53 bd
       0.03253746 0.03342214 0.03739695 -0.051622868
000170 0d 15 b6 bc 36 3a ea 3c 20 1b b2 3c 7a 27 74 39
       -0.022226835 0.02859221 0.02174145 0.0002328436
000180 61 60 0a bd d0 cd 60 3a 8c f8 dc 3b b0 27 1a bd
       -0.03378332 0.00085755903 0.0067434963 -0.037635505

linear_3.weight f4 [10, 100]
000000 27 0e 42 3c 53 1b a3 3c 9d 21 67 bd 0d 59 36 3d
       0.0118441945 0.01991049 -0.05642854 0.04451852
000010 d3 1b a5 bd f3 01 d7 3c 9f ba 98 3d 0a 1e 9e bd
       -0.08061948 0.026246047 0.0745747 -0.07720573
000020 27 c8 32 3d 23 24 6b 3d f7 f0 2c 3d 8f 51 c2 3d
       0.04364791 0.05740751 0.04222199 0.09488212
000030 07 4f 5d 3d a2 5c c4 3d b7 57 48 bd 60 f2 ff bc
       0.054030444 0.09587981 -0.048911776 -0.031243503
000040 b8 8b b1 3d 25 96 b2 bd 9a 08 2f 3c 4d 13 96 bb
       0.08669227 -0.08720044 0.010683203 -0.0045799376
000050 33 e7 ba 3d 4d f5 aa 3b ed 22 8c bd 23 85 c3 3d
       0.09126129 0.0052172304 -0.06842599 0.09546878
000060 4b a7 a9 bd 23 0c 1b 3d 03 aa 83 3d 97 c0 3e 3d
       -0.08283862 0.03785337 0.064289115 0.046570387
000070 1a 5f 75 bd 9b 81 a8 3d a7 1d 3b 3d b3 5b c5 bb
       -0.05990515 0.08227845 0.045682576 -0.0060228943
000080 13 32 ca bc 1a a4 ab 3b c8 fb a2 bd c7 1f d0 bc
       -0.02468208 0.0052380683 -0.0795818 -0.025405778
000090 95 09 9f bd a0 dd 39 3d 33 27 0d 3b 3a e0 49 bd
       -0.077654995 0.045377374 0.0021538257 -0.049286105
0000a0 43 c4 57 3d 6f 97 ab bd 3a 4a 27 bd 57 7b ba bd
       0.052677404 -0.08378493 -0.040842272 -0.091055565
0000b0 1a 3e 90 bc 65 19 c3 3d e3 d9 5e bd e7 5c b1 bb
       -0.017607737 0.09526328 -0.05440701 -0.005412686
0000c0 e3 cb be bd 53 89 d6 bc 5a 0c 81 3d da 47 c2 3d
       -0.09316232 -0.026188528 0.06301184 0.09486361
0000d0 3a 7c 96 3d c7 c2 4f bd 38 02 c8 3d b3 4a 9e 3b
       0.07347913 -0.050722864 0.09766048 0.004830682
0000e0 aa 80 8c 3d 1b 46 ba bd 6d 18 2b 3d b3 73 cd bb
       0.06860478 -0.09095403 0.04177134 -0.006269896
0000f0 2f 28 cc bd b3 26 da bb 80 cc 34 3c 93 34 be 3d
       -0.09968602 -0.0066574453 0.011035085 0.092873715
000100 67 7c 94 bd a3 96 2c bd 5f 3c bf bd 67 ec 68 bc
       -0.0725029 -0.042135846 -0.09337687 -0.014216519
000110 c0 80 0c 3d e5 da ca 3d 27 25 cc 3c 00 a1 4a bb
       0.034302473 0.09905032 0.02492006 -0.0030918717
000120 32 e1 87 bd 42 ac 95 bd f7 aa aa bd 5d 87 bb 3d
       -0.066347495 -0.07308246 -0.0833339 0.09156678
000130 9a 78 ab 3d eb 2d bd bd cd 31 4d bc ba 07 c3 3d
       0.08372612 -0.09237274 -0.01252408 0.09522958
000140 53 16 c3 bc ff ef bc 3d 37 57 2f 3d 87 c4 a0 3d
       -0.023814356 0.09225463 0.042807784 0.078499846
000150 a2 49 82 bd 22 38 9a 3d f0 c5 81 bd c0 54 92 bc
       -0.063617006 0.07530238 -0.06336582 -0.017862678
000160 9a dd f2 ba d3 ca cb bc 07 83 2d bd 2b 85 b4 3d
       -0.0018529177 -0.024876988 -0.042361286 0.08814462
000170 03 df 2b 3d c0 9c 45 bc cd 29 58 bd 9a 9e 13 3d
       0.041960727 -0.012061298 -0.05277424 0.036039926
000180 e7 c2 f9 bb aa a7 34 bd ad fd b7 3c e7 85 a1 bd
       -0.007622111 -0.04410521 0.02245983 -0.07886868
000190 3b 3c c7 3d 02 bb c3 3d 15 43 8f bd 1a c5 b1 3b
       0.09728285 0.09557153 -0.06995217 0.0054251077
0001a0 5a 5d 7f bd 47 55 ff bc 70 3a 00 bd 00 54 6c bd
       -0.062344886 -0.031168593 -0.03130573 -0.057697296
0001b0 b3 aa 87 bc 60 7b ae bd fb 9c 84 3d 53 7d a6 3d
       -0.016560888 -0.08519626 0.06475254 0.081293724
0001c0 73 49 ac bc c7 cf 48 3d 5a de 3f bc e0 49 ea 3c
       -0.021031117 0.049026277 -0.011710728 0.02859968
0001d0 42 aa c1 3d ed 98 79 3d a7 b6 50 bd 67 c1 d6 3b
       0.09456302 0.060936857 -0.05095544 0.006553817
0001e0 92 2a 9a bd 20 0f 8c 3c a7 d2 89 bd 25 b0 87 bd
       -0.07527651 0.017097056 -0.06729632 -0.06625394
0001f0 da 1e 68 3c 25 bd a2 bd ba a0 95 bc 1d 55 2d 3d
       0.014167512 -0.07946233 -0.018265117 0.0423175
000200 d3 ff c9 bd 60 bb 0e 3d 08 61 ba 3d 00 24 7f bb
       -0.09863248 0.034846663 0.091005385 -0.003893137
000210 33 19 5f bc b7 e7 55 3d c0 b9 84 3d cd 83 66 3c
       -0.013616848 0.052222934 0.064807415 0.01406951
000220 07 d8 85 3d ed e6 af bc 5d d5 98 3d 00 80 9d 3a
       0.065353446 -0.021472419 0.07462571 0.0012016296
000230 c0 b3 f9 3c da b6 a1 bc 87 8f 79 3d 9f 60 bd bd
       0.03048122 -0.01974051 0.060927894 -0.09246945
000240 a7 de 09 bc 50 02 b7 3d f0 5d 96 bd 67 b1 0c bc
       -0.008414901 0.08935988 -0.07342136 -0.008587218
000250 28 8f 9c 3d 17 a0 7b 3d 40 72 90 3c 67 08 24 3d
       0.076444924 0.06143197 0.017632604 0.040047076
000260 37 70 a8 bd 65 6c ba 3d b0 1f 84 bd d3 2f 56 3d
       -0.08224528 0.09102706 -0.064513564 0.052291702
000270 28 a8 c4 bd a2 88 b5 bd fa cc 2c bd e0 c0 51 bd
       -0.09602386 -0.08863951 -0.04218767 -0.05120933
000280 0d 78 d5 bc cb cb 8e 3d 53 73 00 3d 9a 0e 07 3b
       -0.026058221 0.06972464 0.03135998 0.0020608068
000290 77 1f bd bd 4d 73 ec 3c 6d 66 92 3d a5 a4 ae 3d
       -0.09234517 0.028863573 0.071484424 0.08527497
0002a0 80 cd de 3b 40 7d d4 bc c3 8f 66 3d d0 34 6e 3d
       0.0067994 -0.02593863 0.056289446 0.058155835
0002b0 07 0b 38 bd 47 03 6e 3d ed 9b 85 3d fa 62 a1 3c
       -0.04493239 0.058108594 0.06523881 0.019700516
0002c0 ed 0a 46 bd 8d 4e b3 bc 08 28 95 bd 70 47 8e bd
       -0.048350263 -0.021888042 -0.07283026 -0.06947219
0002d0 8d 95 6c bc 67 9a dc bb d7 f7 af 3d 67 7c f0 bb
       -0.014439953 -0.0067322734 0.085921936 -0.0073390487
0002e0 83 89 3d bd 6a 9b 28 3d 93 4c 92 3c e5 77 ac 3d
       -0.04627372 0.04116384 0.017858779 0.084213056
0002f0 4a 16 12 3d 9f 8a bd 3d 3a c0 f5 bc 0d 99 33 bd
       0.035665788 0.092549555 -0.029998887 -0.043847132
000300 f5 f2 8f 3d fa ba 0d bd 3b 74 90 3d 90 46 97 3d
       0.07028762 -0.034602143 0.07053419 0.073865056
000310 17 98 b3 3d b7 a3 89 bd ea 87 25 3d cb e5 bf 3d
       0.08769243 -0.06720679 0.04041282 0.093700014
000320 82 dd 8c 3d b3 c4 8a 3d b7 81 65 bd b0 e4 06 bd
       0.06878187 0.06775799 -0.05603191 -0.032932937
000330 4d 6d 03 bd d7 27 5e 3d 9a b3 fa bb db 55 ac 3d
       -0.03208666 0.054237213 -0.0076508047 0.08414813
000340 4d 93 f5 3b cd 42 7c 3d 43 f0 37 3d 1a 8e 6c 3d
       0.0074943663 0.061587144 0.044906866 0.057752706
000350 27 d4 cc 3c 0d 85 2c bc 60 f2 92 3d 73 54 3f bc
       0.025003506 -0.010529769 0.071751356 -0.011677849
000360 27 a8 21 3c 00 73 17 3d a5 33 a1 bd 67 b5 e6 3b
       0.009866751 0.036974907 -0.078711785 0.007040668
000370 c3 6d 76 3d 80 99 65 bc 17 f0 66 bd 67 ec 75 bd
       0.06016327 -0.014013648 -0.05638131 -0.060039904
000380 80 eb 6e 3c 5d 71 aa 3d e7 f6 f4 bc d0 de 3c 3d
       0.014582515 0.083224036 -0.029902888 0.046110928
000390 cd 79 59 3b f3 4d 56 bd 97 98 54 3d b3 70 51 3c
       0.0033184171 -0.052320432 0.051903334 0.012783217
0003a0 1b 07 b5 bd cd 88 eb 3b 20 00 76 3d f0 e9 1a bd
       -0.08839246 0.007187939 0.060058713 -0.037820756
0003b0 60 50 b0 bc 5d be 87 bd c3 b6 21 bd 8d 19 1a 3d
       -0.0215227 -0.06628106 -0.039480936 0.037622023
0003c0 33 56 02 bc ed a3 86 bd 7d 39 4b bd 0a ef 23 3d
       -0.007955122 -0.06574235 -0.049615372 0.040022887
0003d0 3d f2 69 bd 0d 80 8c bd 70 2c 79 3d 63 03 2e bd
       -0.057115782 -0.06860361 0.060833395 -0.0424837
0003e0 a0 50 b8 3d 53 d4 bf bd 9d 8e ba 3d fa 46 72 bd
       0.08999753 -0.093666695 0.091092326 -0.05914972
0003f0 c0 dd 2c 3d e3 cd a7 3d 27 da 01 3c fa a9 7b 3d
       0.042203665 0.08193567 0.007925547 0.0614414

linear_3.bias f4 [10]
000000 b3 a1 8b 3b 00 4e ec 3a 93 e8 10 3d e7 72 ae bd
       0.0042612194 0.0018028617 0.03537805 -0.0851801
000010 a7 43 72 3c 60 f1 8c 3d 75 7c ca bd ed 62 90 3d
       0.014786637 0.06881976 -0.098870195 0.070501186
000020 e0 6f cb 3d 9a 08 2e 3d
       0.09933448 0.04248867
